mp6-code/net.model (torch, 964215 bytes, 20 tensors)

weight f4 [64, 3, 3, 3]
00000000: 4cb5 e53d e8d3 fe3d 8eae 78bd f327 d13d
00000010: ba98 dcbd 0b02 883c 3554 15be b26b a73d
00000020: 66a9 383e 7a37 13be ccf4 1a3e 0c9e 2c3d
00000030: e3fa b83d ed56 6bbc 8aad d53d 07d7 84bd
00000040: 6b34 153e 2023 af3d e7f1 f1bd b451 033d
00000050: 1759 acbd 3dc8 bdbd 71d0 fdbd fe45 033e
00000060: 4111 63be 0971 d2bd 1670 54bc 2120 efbd
00000070: 8215 033c 0da4 3ebe 5c82 1c3e 8d94 23be
00000080: 33b1 093e 8cd9 ba3c 3e80 7abd 59da d43d
00000090: fe58 333d 1026 243e 1cc8 073d 4db3 56bd
000000a0: b10a 823d b78f 2dbd 8439 aa3d b2f7 343e
000000b0: 1b4d dc3d c21c 99bd 5fd2 d93d ea14 0d3d
000000c0: 01ce ac3d 0bd3 e8bd 2a9a 42be e6af afbd
000000d0: 4051 1abe 904a 063e 0b6f 563d 628e df3d
000000e0: 2c02 b23d 9d0f 4abc cea8 223e 7b75 f6bd
000000f0: 0e0c 4b3c fcf0 03be 9e63 4c3d 6c8d a1bd
00000100: 85c4 743d e90d 0dbd 73ce 093e 534a e6bd
00000110: 7c2e efbd e5c0 ccbd 4fa6 283e 2b9e 6e3d
00000120: 1685 113e bd1e 2fbe 9440 41be 8c6c 2fbe
00000130: 025c 11be a600 853d 806e 9c3d 07c6 193e
00000140: 1414 bdbd eee5 02be 6303 043e 7eb0 30bd
00000150: 1896 153e ad1c 57bd 1c42 d23d 2766 8cbd
00000160: d79c 85bd 8cbc 8d3d cafd 003d 1bd0 53bc
00000170: c59e 053e 654b 203e af51 03be f333 b2bd
00000180: 0b00 6a3e c0b1 fbbc 1d67 14bd 90e9 38be
00000190: 77ca 90bd c91e 993d 587b 543c 59ba 08be
000001a0: e80e 773c 78f0 98bd efd6 14be 324b afbd
000001b0: ac6f 08be b688 c0bd 7cde 473e 661e 4b3d
000001c0: 3631 883d 330c 2ebe 2f1b 00be f361 88bd
000001d0: 02ad 953c cae1 0ebe c7f5 77bd 4eca d2bd
000001e0: 6649 963c fd9c 61bd f128 01bc e208 f7bd
000001f0: a0c2 00be b526 e3bd 97fd 0abd 49b2 f0bd
00000200: 4021 303e 2966 19bc b392 393e ed3d 9d3d
00000210: 69b9 0ebe 8895 0d3e 731f 18bd 8495 eebd
00000220: 1c5b 29be 2c50 54be b667 5a3d 47c0 5abc
00000230: e7cd df3d 4bb6 36be 2e99 fe3d f002 13be
00000240: d26e 92bd 844d ff3c bb63 903d 73af 213e
00000250: c703 4d3e f1f9 d3bd cf82 963c f080 bbbd
00000260: 42d0 f4bc 9309 31be 23c4 233e b98b 21be
00000270: c069 eb3d 15c7 cd3d 408d d83d 1599 ecbd
00000280: 301d 253e dd7c 1c3d 86d3 5d3d 984c 0dbe
00000290: 0d5e d93d de31 20bd b8ea bdbd 0944 203e
000002a0: 7be0 943b 9e02 fabd ce92 c5bd af64 c33c
000002b0: 6fe5 053e b19f f6bc 80eb dbbd de70 76bd
000002c0: 4b29 12be 1843 263d debf 0c3e c98f 30be
000002d0: 72d3 973d aa14 f63d 2a4d 313d 341f 76bd
000002e0: 78f5 d23d f244 bf3d 0d33 5b3d b926 f5bc
000002f0: d327 31bd a711 423c 4eb5 4cbd 509e 9bbd
00000300: 223c 103e 24e1 373e 722b a33b 752e 3bbd
00000310: 28de f53a cc1a a0bc 5f7f ea3c b437 da3c
00000320: de7c 46be da91 47bd e7ae 303e 238f bf3d
00000330: 14fd ffbb aa69 dbbd c24d e8bd 0bb5 2fbe
00000340: 402c a9bd cc04 2b3d 8d2b 173e b2e2 d93d
00000350: 912a 0abe 8888 b5bd 8c8d 48bc deed 3f3e
00000360: e447 883d d97c 8bbc 2284 cf3d 5ffd 91bd
00000370: 785a fabd bbf6 023e 5483 a8bd 3381 23bd
00000380: 694a 3abe 4eab 223e 1868 283e 92e2 b23d
00000390: f98f fabd 8820 37be dcab 1abe 5a9e 1b3e
000003a0: db3c ca3d f7d2 2a3e 1bc0 003e ee5e 843d
000003b0: 748a 3b3c cee6 febd a886 15be 0768 28be
000003c0: 342d db3d d9c0 80bd 1b35 03bc e94c e7bd
000003d0: d30e f8bc 6604 0abe ed1f f5bd 6917 923d
000003e0: 35a5 3ebd 12c9 003e 2e0f f7bc d154 d4bd
000003f0: 625b 2dbd 41d0 b6bd ab89 8cbd f776 36be
0.1121622 0.12442762 -0.060713343 0.10212698 -0.10771318 0.016602537 -0.14582904 0.08174838
0.1803337 -0.14376631 0.15132445 0.042142913 0.09032228 -0.014363986 0.104334906 -0.06486326
0.14570777 0.085516214 -0.11813717 0.03206034 -0.0841543 -0.09266708 -0.12393273 0.12819669
-0.2217455 -0.10275466 -0.0129661765 -0.1167605 0.008000733 -0.18617268 0.15284103 -0.15974636
0.13446502 0.022808813 -0.061157458 0.10393209 0.04378604 0.16030145 0.033149824 -0.05241709
0.063496955 -0.042373385 0.083117515 0.17672613 0.10756894 -0.07476188 0.10635828 0.034443773
0.084377296 -0.11368378 -0.19004121 -0.08578472 -0.15070057 0.13114381 0.052351993 0.10915829
0.086918205 -0.012332824 0.15884706 -0.12034126 0.012393011 -0.12884897 0.04989969 -0.07888302
0.059757728 -0.034437094 0.1345766 -0.11244645 -0.11678788 -0.09997729 0.16469692 0.05825631
0.14210925 -0.1710157 -0.18872291 -0.17131251 -0.14195254 0.06494264 0.07638264 0.15016948
-0.09232345 -0.12783024 0.12891917 -0.043137066 0.14608037 -0.05251758 0.102665156 -0.068554215
-0.065240555 0.06920728 0.031492032 -0.012928034 0.13048847 0.1565376 -0.12824129 -0.08701315
0.22851579 -0.030724406 -0.03623115 -0.18057847 -0.07069867 0.07476575 0.012968861 -0.13352336
0.0150792375 -0.07467741 -0.14535116 -0.08559264 -0.1332385 -0.094010755 0.19518465 0.049589537
0.06650011 -0.16996841 -0.1251037 -0.06659307 0.018270973 -0.13953319 -0.060537126 -0.10292493
0.018345546 -0.055081356 -0.007883296 -0.12062241 -0.12574244 -0.11091367 -0.03393325 -0.11752755
0.17200184 -0.009362736 0.18122368 0.07677827 -0.13937916 0.13826573 -0.037139367 -0.116496116
-0.16538662 -0.20733708 0.053321563 -0.013351507 0.10927945 -0.17842977 0.124315605 -0.1435659
-0.071500435 0.031164892 0.07050272 0.15789585 0.20020972 -0.10350407 0.018372921 -0.09155452
-0.029884461 -0.17288809 0.15992789 -0.15775956 0.114947796 0.100477375 0.10573816 -0.115526356
0.16124415 0.038205016 0.054156803 -0.1379875 0.10613642 -0.039110057 -0.09273285 0.15650953
0.0045433617 -0.122075304 -0.096471414 0.02385172 0.13075803 -0.030105444 -0.107382774 -0.060166232
-0.14273565 0.04059133 0.13745067 -0.1724235 0.07413377 0.1201566 0.04328648 -0.06008835
0.10300726 0.09339322 0.053515483 -0.029925691 -0.04325087 0.011845029 -0.049977593 -0.07598555
0.14085439 0.17956978 0.0049795443 -0.0456986 0.0018758224 -0.019544028 0.028625188 0.02663789
-0.1938357 -0.04872308 0.1725422 0.09353473 -0.0078121517 -0.10713513 -0.11342956 -0.17158906
-0.08260393 0.04175262 0.14762707 0.10638942 -0.134928 -0.08863932 -0.012240779 0.18743083
0.06654337 -0.017027305 0.10132624 -0.07128405 -0.12224287 0.12789433 -0.08228174 -0.039918136
-0.18192448 0.1588566 0.16445959 0.08734621 -0.12234492 -0.17883503 -0.15104622 0.15197125
0.098748885 0.16682039 0.12573282 0.06463419 0.011446584 -0.12446366 -0.14602149 -0.16445933
0.10701981 -0.06286783 -0.008008267 -0.11293966 -0.030280506 -0.1347824 -0.1196898 0.071333714
-0.046544272 0.12576702 -0.030158605 -0.1036774 -0.042323478 -0.0892644 -0.068621956 -0.17818819

bias f4 [64]
00000000: 3a2b b83d 1c5f cdbd 56f6 06be 8038 813e
00000010: 8b61 193d 25aa 2d3c 55bd 44bb cda5 003d
00000020: 4686 dc3c ea09 acbd b51b 28be 5ef7 cb3d
00000030: 21c7 543a ff07 9b3d 30db 99bc be83 8c3d
00000040: b5a8 373e af2e d13d b6b9 793d 134c 493e
00000050: 2d6e 46bd 9d64 af3c 8f12 3c3e ca8a 223e
00000060: b36c 9ebd 6960 2d3e a310 3cbd a998 e7bc
00000070: 8f9d 493e ab41 c7bd 6e12 1c3e be55 1e3e
00000080: 885e 19be 5fba 0ebe f667 4abe 7a85 66bd
00000090: 71f5 59be 1ec9 bbbd 182b a33d 4cb5 0b3e
000000a0: f429 bd3d c731 a63d 9d30 933d 32c9 57bd
000000b0: bb28 15be 17e7 53bc 33a3 303e ac8a b23b
000000c0: 0733 d5bb ce79 34bd fba5 cdbd 8f9a 0bbe
000000d0: 89d7 173e 1dd6 5ebe 6a77 46be c518 33bd
000000e0: 6db6 13bb 4383 6abd 0c6c 2e3d a112 b63d
000000f0: bf2b 4fbe 1303 1dbe 5389 20be 5331 53be
0.0899262 -0.10027906 -0.13179907 0.2523842 0.03744654 0.010599648 -0.0030020077 0.03140812
0.026919495 -0.084003285 -0.1641682 0.09959291 0.0008116831 0.075698845 -0.018781275 0.06861065
0.1793545 0.10213982 0.060968123 0.19657926 -0.048444916 0.02141028 0.18366455 0.15873256
-0.077355765 0.16931309 -0.045914304 -0.028271036 0.1968901 -0.09729322 0.15241405 0.15462396
-0.14977467 -0.13938282 -0.1976622 -0.056279637 -0.21285035 -0.091692194 0.07967204 0.13643378
0.092365175 0.08114963 0.071870066 -0.05268211 -0.14566319 -0.012933514 0.17249756 0.00544866
-0.006506327 -0.044061475 -0.10041424 -0.13633178 0.14828314 -0.21761365 -0.1938149 -0.043724794
-0.0022539154 -0.057254087 0.04258351 0.08890272 -0.20231532 -0.15333204 -0.15677385 -0.20624284

weight f4 [100, 64, 3, 3]
00000000: 15c2 25bd 60a1 0b3d 917d 13bc ab24 bebc
00000010: b81e 7abc d02b 0fbd 12f6 cf3c df65 d1bb
00000020: ff4d a1bc 412b f1bc 7c2d d13c 336b 75bb
00000030: 6ee4 5fbb 4b95 08bc b2cf 85bc 7de5 e93b
00000040: 4aca 043d 1804 b3bc 2f58 4eba 635d 0dbd
00000050: e01f a0bc 435e fe3c cba0 76bb 234d 1e3d
00000060: c253 d8bb 59c3 babc 60dd b9bc c88c 323d
00000070: 16a7 f2bc d5de d43c 747e 853c c7b1 823c
00000080: d03c cd3c aa33 f4bb e5c6 c83c 9bf2 0abd
00000090: 442c 64bb 9894 023d 90f6 403c bdae ad3b
000000a0: 212f 48bb ead0 a6bc eba4 f73c e2d7 053a
000000b0: ff1b f939 de67 363c 1c8a 043d 3724 aabc
000000c0: f2bd 61bc 31c0 e23c d20d b43c cba0 a0bc
000000d0: db4a 17bd f885 313c 5690 b83c 5dfd 2b3c
000000e0: 9314 e43c 2504 fabc 4d53 aa3c 253a ccbc
000000f0: 2350 ad3c e66b dd3c 8500 0d3c c9f3 003d
00000100: bf13 d8bc 83df 0bbd 1b8b 18bd 9f71 c13c
00000110: 9f0b 503c f2f8 efbc 4ac9 a43c 6710 223d
00000120: 1328 0cbd 7704 003d d0c4 383c 450b a03b
00000130: 5392 243d eca9 283d 559e 9a3c 0134 023d
00000140: a5a7 3f3c 1e8f 113c eda0 00bd 688a e93b
00000150: 23ef e8bc bd56 4b3c 9bc0 8a3b bf06 763b
00000160: 1c2e cdbc 8804 b6bc 4618 fa3c 111c 653c
00000170: 1016 9a3c 33ca ecbb 4e8b ccbb 4a2e b8bb
00000180: 451c fd3c 65b5 6cbc 46fc f73c 93cb df3c
00000190: 9717 0ebd f0fe a4bb 8a2d 82bb f2cd 94bc
000001a0: 0ff3 6c3c 5bf6 d9ba 78d2 253d 380d c2bc
000001b0: 8772 f03c 5dcd f6bc 23ad 92bc 74b6 0d3c
000001c0: eb13 033d aabf b63c 32b6 c1bc 8985 003c
000001d0: 8c40 99bc 89f9 933b 1f99 febc df3d 3bbc
000001e0: b1ec f43c d124 0dbd 74e9 17bd 3e52 d63b
000001f0: 80b9 993b 95c9 1bbc fe92 093d b80d cdbc
00000200: b49c ebbc caee 00bd d3fa 3dbc f731 8bbc
00000210: d183 c73c ca9d 0ebb 9aa6 193c 5a0b 4dbc
00000220: 8604 073d beba 193d ce9a 0abd 8ffe 11bc
00000230: adf3 f5bc f12e a93c 5077 12bd 1cdf a6bc
00000240: ac3a 153d ba9e 1ebd e65c 1e3d 0ece dbba
00000250: 425a fb3c 34c0 9bbc f115 ab3c e1b8 d837
00000260: 2adf ad3b dda9 ed3c 08e9 05bd 1191 d9bc
00000270: c74e 283d e8b2 a4bc 41ed e2bc ec34 6bbb
00000280: 5c6e 75bc a3dc 01bc 2253 f4bc 6935 553c
00000290: 25c8 1bbd 4e7c 8839 e3c7 ad3c 3208 de3b
000002a0: 7090 3f3b ffe3 d43b 3510 21bc d4f9 c73a
000002b0: d0c8 38bc d729 c9bc 4f34 6fbc 7091 363d
000002c0: 395f b9bb 650f 893c 0fb2 013d b665 b5bb
000002d0: 5b2b c3bc 8325 e8bc 55b1 85bc 7bf3 4d3c
000002e0: 98d4 0abd cb75 62bb 7a90 473c 2a14 fa3c
000002f0: a524 363c 4873 393c 0817 f63c b00f a83c
00000300: 41c0 453c 86b9 69bc 948b 0ebd 88fb bbbb
00000310: 541c 05bc 0265 653b a010 83b9 6ec6 b23c
00000320: d10a de3c 6b3f 5ebc fe13 0abd 0b08 b1bc
00000330: bbcd 49bc 9b1d da3c 1d99 bbbc 2781 0c3b
00000340: c55a e7bb 81e8 82bc 7e59 e23c 0192 21bc
00000350: 0fab ba3b f265 bbbc e609 74b8 060f 233c
00000360: fc77 4abb dcac 8abc f315 0d3c edfc 16bc
00000370: c6d5 aebc 3596 f2bc 4d5e 76bb cbcd 13bd
00000380: 5b36 0c3d b9c2 babc c8ec 87bc 4fd0 aab9
00000390: 9547 083c 0905 8dba 4fa4 d23c fe58 a5bc
000003a0: 931d 913c a017 7c3b 1d69 05bd b7d1 4cbc
000003b0: 5724 3c3c 2e05 133c e4b7 f83c fa6b d83c
000003c0: 2c4e c8bc 67f4 9cbc e126 4abc dd06 debc
000003d0: 6eaa e0bb d337 0bbd c7c8 783c 744b eb3c
000003e0: fef2 103b 5aa1 d9bc 32f4 e3bc 0d30 41bc
000003f0: bff2 413c 8912 4439 907e 813c 7773 213d
-0.040468294 0.034089446 -0.009002105 -0.023210844 -0.015266113 -0.034953892 0.02538589 -0.006390318
-0.019690512 -0.02943957 0.025534384 -0.003744793 -0.0034163254 -0.0083363755 -0.016334388 0.007137953
0.03241948 -0.021852538 -0.0007871417 -0.03451289 -0.01954645 0.031050807 -0.0037632461 0.038647782
-0.0066017816 -0.022798227 -0.022688568 0.04359129 -0.029620688 0.02598516 0.01629565 0.015953911
0.025053412 -0.007452448 0.024508903 -0.033922773 -0.0034816423 0.03187999 0.011777535 0.0053003714
-0.003054567 -0.02036329 0.030230006 0.00051057164 0.0004751384 0.011133162 0.032358274 -0.020769222
-0.013778197 0.027679535 0.021979246 -0.019607922 -0.036936622 0.010835163 0.022529762 0.010497418
0.027841842 -0.030519554 0.020791674 -0.02493007 0.021156376 0.027028989 0.008606081 0.03148249
-0.026376603 -0.034148704 -0.037242036 0.02361375 0.012698083 -0.029293511 0.020115513 0.039566424
-0.034217905 0.031254258 0.0112773925 0.004884156 0.04017861 0.041177675 0.018874327 0.031787876
0.011697684 0.008884219 -0.03140347 0.007127095 -0.028434342 0.012410817 0.004234386 0.0037540642
-0.0250464 -0.022218958 0.030529153 0.013983742 0.018809348 -0.0072262525 -0.0062421924 -0.0056207525
0.030897269 -0.014447545 0.03027166 0.027318751 -0.034690466 -0.0050352737 -0.003972714 -0.018164609
0.014462247 -0.0016629206 0.04048392 -0.023687944 0.029351486 -0.030127222 -0.017904824 0.008649457
0.032001417 0.02230819 -0.023646448 0.007844337 -0.018707536 0.004515831 -0.031078873 -0.011428325
0.02989802 -0.03445894 -0.037087873 0.0065405658 0.004691303 -0.00950851 0.03358745 -0.025030956
-0.028761245 -0.031477727 -0.011595446 -0.016991599 0.024354847 -0.002176153 0.0093781 -0.012514913
0.0329633 0.037531607 -0.03383904 -0.008910789 -0.03002342 0.020652266 -0.035758317 -0.020370059
0.036432907 -0.038725592 0.038662814 -0.0016769783 0.030682687 -0.019012548 0.020884486 2.5835297e-05
0.0053061442 0.029011661 -0.03269294 -0.02655843 0.041090753 -0.02010484 -0.027701022 -0.0035889698
-0.014979925 -0.007926139 -0.029824797 0.013013222 -0.03803267 0.00026032556 0.021213477 0.0067758793
0.0029230379 0.006496906 -0.009830524 0.001525695 -0.011278346 -0.024556084 -0.014599874 0.044572294
-0.0056571034 0.016730973 0.03166395 -0.0055358065 -0.023824384 -0.0283382 -0.01631991 0.012570257
-0.03389415 -0.0034555073 0.012180442 0.030527193 0.011117135 0.011318989 0.030040279 0.020515293
0.012069763 -0.014265424 -0.03480108 -0.005736772 -0.00812443 0.0035002832 -0.00024998654 0.021823134
0.027104767 -0.013564925 -0.033710472 -0.02161028 -0.012317116 0.026625445 -0.022900159 0.0021439285
-0.007060381 -0.015980007 0.027630564 -0.00986147 0.0056966613 -0.02287576 -5.8183352e-05 0.009952312
-0.003089427 -0.016928129 0.00861119 -0.009215576 -0.02134217 -0.02961264 -0.0037592829 -0.03608493
0.034231525 -0.02279793 -0.016592398 -0.0003258013 0.008317848 -0.0010758947 0.025713114 -0.020184036
0.017714297 0.003846623 -0.032570947 -0.012501172 0.0114832735 0.008973403 0.030361123 0.026418675
-0.024451338 -0.019159509 -0.012338371 -0.027102882 -0.0068562543 -0.033988785 0.015184588 0.028722502
0.002211749 -0.026566196 -0.027826402 -0.011791241 0.01183766 0.00018698921 0.01580742 0.039416756

bias f4 [100]
00000000: 17fa 6e3c ebd6 9e3d 9c37 5f3d 8239 1fbd
00000010: e4c1 523c 28bf ab3c 1c5b 9d3c b6e6 efbc
00000020: c1d4 c53c d0e8 acbd 4d5f b33c e562 39bc
00000030: 4883 7ebc 2682 59bd 8d1b 803b 6093 893b
00000040: 7252 90bb 57eb f4bc 18ed 8c3c 3dc5 f73c
00000050: 58d8 373d ff49 4f3d 5748 08bd c01f 73bc
00000060: bdda 90bc b717 e13c 7232 b0ba 0202 efbc
00000070: b783 e3bb 58b6 ae3b cf5d 223d 40dc b73c
00000080: 5cb0 b93d 59f5 3ebd 622f c23d 1a72 04bd
00000090: 5a05 f63c 01af e93c 2750 94bc 895b 2b3d
000000a0: 5dc3 9f3b 2b2c b8bb 6986 f9bc c892 eabc
000000b0: acf8 4f3c 4e31 8aba ea38 b63c 37d9 1b3d
000000c0: ec5f 5ebd 23ce eb3b 001a f7bc 91c0 b43d
000000d0: 8ca2 2339 d2e7 31bd ce1e af3c 6c8d 343d
000000e0: 013d 8b3c cd73 88bd aaba 673b 51f0 70bb
000000f0: 3dd3 e5bc f37a 143c afa3 9cbd 7d28 af3c
00000100: 2d6e 8abc 560c d539 e6ef b03c 2f03 f9bb
00000110: 2942 993b cb0c f43c 6644 acbc 1a76 d1bb
00000120: 2265 ddbc a054 46bd 9dc7 18bd 086c e03c
00000130: 59fd 233c db01 933c b3c7 5ebb 6b5e f53c
00000140: 171d 913c ac46 8c3b a82d 6f3b 50cc be3c
00000150: 7931 dc3b 6c52 e53c d7ab 11bc 5cf4 b43c
00000160: d2df 003b 7491 ad3b 9d77 b73c 6ccc 373c
00000170: 787d fdb8 4ddb 6c3d 6879 cf3d 0aa5 513d
00000180: e327 b7b9 ba2e fdbc e0b1 02bc f5ac 50bd
0.014585993 0.07755836 0.054496393 -0.038873203 0.01286361 0.020965174 0.019208483 -0.029284816
0.0241493 -0.08442843 0.021896029 -0.011315082 -0.01553423 -0.053102635 0.0039095343 0.0041984767
-0.0044043595 -0.029897375 0.017202899 0.030245418 0.044884056 0.050607678 -0.033272114 -0.014839113
-0.017682428 0.027477128 -0.0013442768 -0.029175762 -0.006943192 0.0053317957 0.039640244 0.02244389
0.09066841 -0.0466207 0.09481694 -0.03233538 0.030031849 0.028525831 -0.018104626 0.04183534
0.004875584 -0.0056204996 -0.0304596 -0.028634444 0.012693565 -0.0010543258 0.022243936 0.03804895
-0.054290697 0.0071962043 -0.030163765 0.088257916 0.00015605445 -0.04343397 0.021376994 0.044080183
0.016996862 -0.06662712 0.0035359063 -0.0036764333 -0.028054828 0.0090625165 -0.07648408 0.021381611
-0.016898239 0.00040635717 0.021598767 -0.0075992565 0.0046770764 0.029791256 -0.021028709 -0.0063922526
-0.027025763 -0.04842055 -0.03729974 0.027395263 0.010009133 0.01794522 -0.0033993542 0.029952249
0.017714066 0.0042808857 0.003649572 0.023290783 0.006719765 0.027993403 -0.0088910675 0.022089176
0.0019664657 0.0052968804 0.022395903 0.011218172 -0.000120873505 0.05782633 0.10130578 0.051182784
-0.00034934198 -0.03090607 -0.007976979 -0.050946195

weight f4 [64, 900]
00000000: 3962 6c3b fdda 8ebc f23b 17bc 3629 afba
00000010: 9d0d 01bc b790 74bc 9d28 683c 487e b1bc
00000020: c6f0 a23c b0ab 13bc 69ef b83c 85c1 90bc
00000030: 6413 b23c 2b21 913c 7428 ad3c febf f5bc
00000040: 51ff 2cbc 993b e8bc 9659 fdbc a875 c6bc
00000050: afea c53c f3e9 6cbc 2957 80bc 10cf 6bbb
00000060: be64 313c 4cca 46ba 53c0 acbc 34cb 833c
00000070: 1b1e 883c 3abb bb3c a8a4 7e3c f248 993c
00000080: b454 883c 32ea 8c3c 2d76 fb3c 05de c1bc
00000090: cfb4 c13c 4c48 cfbc 5724 91bc 95d1 50ba
000000a0: 8132 c43c 5714 84bc 6193 b13c 15e2 b6bc
000000b0: 44b2 82bc d353 843c 25c1 c43b 480a d3bb
000000c0: 4dfe debc bf46 ac3c 4c71 b1bc 4794 aa3c
000000d0: b157 843c 355c 99bb 9f7e 74ba 9d01 f8bc
000000e0: d614 cf3b b88d fe3a ae4b 7dbc 98ce edbc
000000f0: fe47 3d3c 8e8a 053c 6459 923c d296 01bc
00000100: 4098 f5bc 1dce c3bc 54af 1fbc 1263 e43c
00000110: 8dad 8b3a 7a56 68bc 0574 ca3b 2a30 9a3c
00000120: 7c45 a63c 0694 86bc 029d ba3c e7b0 5cbc
00000130: 308e 94bc b6ca 91bc 2fea 88bc 0c6f eb3b
00000140: d3e8 c13c 6cee e83b 89b7 40bc 5a9d e93b
00000150: 2f74 f43c e531 8fbc 72f1 28ba 31b3 1bbc
00000160: 2334 8c3c 6140 2bbc 4200 29b9 ba19 04bc
00000170: 20b7 f9bc e7fb b6bc 7905 1dbc ed0a 3bbc
00000180: 2ed7 e9bc efb2 433c a3cc b8bc a4fc dabc
00000190: d8e3 8d3c fcfb 9abc b1a1 b43c fc47 6c3b
000001a0: 499a ebbc 891e fa3c c2b7 e9bc 0275 f3bc
000001b0: 0468 e6bc 3a50 923c c153 f7bc 0b14 acbb
000001c0: 807e c53c c2ce 02bc d884 df3c de4b d6bc
000001d0: 37b6 8b3c 9f6e 53bc c8c7 c4bc dfb1 863c
000001e0: ff9f 70bc a22f e1bc cdc2 9a3c 6942 dabc
000001f0: cb79 aebc 2a3c 9bbc ff70 593c 45b9 043c
00000200: cda6 dcbc cd04 00bd 444e dabc 11b5 f43b
00000210: 2aad 84bc 2b19 e7ba c492 b43c a187 bdbc
00000220: 018f 0f3a 80e6 91bc 1830 883b 2bf3 fe3c
00000230: e18b 9bbc 7f3e bc3c 33b5 c03c 2c74 c93c
00000240: f718 2b3b 2c2d c83c 0c90 d73c d44d d0bc
00000250: 8084 29bc cafa d3bb 80a3 963c 476c 50bc
00000260: 0d0d 2e3c c6d8 ca3c 21d0 fa3c b55f 353c
00000270: 6c77 c73b dc39 2fbc 2e9a 693c d33e 53bc
00000280: ed45 b73c a72a 2dba 12ab d3bc 52cc d03c
00000290: ceab 3ebc f9fd a93c e17c c3bb 7bfd f53c
000002a0: 0052 f73c 4358 a53c 79d8 d3bb c658 f138
000002b0: 86b5 67bc 1d65 96b7 d0a1 ec3c 4852 ad3b
000002c0: c099 bd3c 3190 dfbc b61c 803c 0ae7 e5bc
000002d0: 51aa 373c cd8d ffbc 3047 bfbb 6601 babc
000002e0: 9bf3 84bc a7da 013d fb43 01bc 4b24 8b3c
000002f0: 05e7 28bc 1903 6dbc 77c1 fcbc 92f0 9fbb
00000300: aec8 f73c 05e2 63bc 707d f5bb 1feb d8bc
00000310: 8587 fabc 98c0 f83c 7ba8 7f3c ecc0 c9bc
00000320: 4cbc bf3c bec2 32bc 646b 333c 2292 bfba
00000330: c9d5 b63b 52eb f5bc 39d0 2abc 5460 d0bc
00000340: f37e f63c 3abf 353c a994 473c 9317 923c
00000350: 0009 a7bc 61da cc3c b5cb a23c 0cdd 663c
00000360: 32ae f83c 8b68 e63b 4f51 43bc 72e3 aa3c
00000370: 6712 69ba 5e92 b8bc ddcf cbb9 a15b c1bb
00000380: 7c79 d4bc 04fc adbc d858 aa3c ad67 29bb
00000390: edf5 193c 8aa3 b1bc 3963 e7bb 699c f13b
000003a0: 23d7 fb3c ad39 98ba 3899 943b f444 fbbc
000003b0: 9a66 96bc 3a75 d2bc 653c b63c cb37 913c
000003c0: 533d d43c fcb0 a9bb 0e80 d43c 480e f93b
000003d0: 1da0 a33a 0418 993c 9ed9 673c bea0 cf3c
000003e0: 1a58 0c3c 25be 36bc 82e7 493c 13ad 4e3a
000003f0: b117 cb3b 95fe b63c ab87 ad3c 5e53 79bc
0.0036069287 -0.017438406 -0.009230601 -0.0013363722 -0.007876781 -0.014927081 0.014169839 -0.02166666
0.0198902 -0.009013101 0.022575097 -0.017670402 0.021737762 0.017716011 0.021137454 -0.029998776
-0.010558919 -0.02834873 -0.030926507 -0.024226025 0.024159757 -0.014460075 -0.015666561 -0.0035981573
0.010827241 -0.0007583245 -0.021087801 0.016088106 0.016615918 0.022916425 0.015542187 0.01871154
0.016641952 0.017201517 0.030695999 -0.023665437 0.023645787 -0.025303029 -0.017717524 -0.00079658005
0.023949863 -0.01612298 0.021676721 -0.022324601 -0.015954144 0.016153252 0.00600447 -0.0064404346
-0.02722087 0.021029828 -0.02166047 0.020822657 0.016155096 -0.0046801814 -0.00093267293 -0.030274207
0.0063196225 0.0019420898 -0.015459938 -0.029029176 0.011552809 0.00815071 0.01786489 -0.0079094935
-0.029979825 -0.023901993 -0.009746391 0.027879272 0.001065658 -0.014180774 0.0061783814 0.018821795
0.020296805 -0.016428005 0.022779945 -0.013469911 -0.018134207 -0.017796855 -0.01671323 0.0071848687
0.02367059 0.0071085 -0.011762508 0.0071293535 0.029840557 -0.017479846 -0.00064446696 -0.009503172
0.017114704 -0.010452361 -0.00016117192 -0.008062774 -0.030482829 -0.022336913 -0.009583824 -0.011416179
-0.028544988 0.011944517 -0.022558516 -0.026731797 0.017320558 -0.018918984 0.022049757 0.0036053648
-0.028760092 0.030532138 -0.028530005 -0.02971888 -0.02812577 0.01786052 -0.030191304 -0.0052514127
0.024108171 -0.007983865 0.027285025 -0.026159223 0.01705466 -0.012904792 -0.024021044 0.016442237
-0.014686584 -0.027488533 0.018891716 -0.026642995 -0.02129831 -0.018949587 0.013271569 0.008100812
-0.026935006 -0.03125458 -0.026648648 0.007467874 -0.016195852 -0.0017631402 0.02204264 -0.023135962
0.00054763263 -0.017810106 0.004156124 0.03112181 -0.018987598 0.02297902 0.023523903 0.024591528
0.002610741 0.024435602 0.026313804 -0.025427736 -0.010346532 -0.0064691054 0.01838851 -0.012721128
0.010623229 0.024761569 0.030616822 0.011070182 0.0060872342 -0.010694947 0.014257951 -0.012893396
0.02237221 -0.0006605782 -0.025838409 0.025488053 -0.011637641 0.020750986 -0.0059658145 0.030028095
0.030190468 0.020183688 -0.0064650145 0.00011508311 -0.0141424 -1.7928478e-05 0.028885752 0.0052893497
0.023144603 -0.027290436 0.01563869 -0.02806427 0.01121004 -0.031195546 -0.0058373436 -0.022705745
-0.016229441 0.031702664 -0.007889743 0.01698508 -0.010308986 -0.014466071 -0.03085397 -0.004880973
0.030247059 -0.013908868 -0.00749176 -0.026479302 -0.030582199 0.030365273 0.015604134 -0.024628125
0.023405217 -0.010910688 0.010950897 -0.0014615695 0.0055796844 -0.030019436 -0.010425621 -0.025436558
0.030089831 0.011092955 0.012181439 0.017833507 -0.020390034 0.025006475 0.019872526 0.014090788
0.0303565 0.0070315055 -0.011921241 0.020860408 -0.0008890987 -0.02253073 -0.00038874047 -0.0059008156
-0.025936835 -0.021238334 0.020794317 -0.002584915 0.009397012 -0.021684427 -0.007061389 0.007373382
0.030742234 -0.0011613868 0.0045348667 -0.030672528 -0.018359471 -0.025690664 0.022245595 0.0177268
0.025908148 -0.005178569 0.025939967 0.0076005794 0.001248363 0.01868821 0.014151005 0.025345203
0.008565927 -0.011153732 0.012323262 0.00078840664 0.0061978926 0.022338191 0.021182856 -0.01521763

bias f4 [64]
00000000: a051 b2bb c712 56bc 13d8 593b c7dd 75bb
00000010: 68b6 af3d eb78 ad3c 5423 0abd 7df6 3a3d
00000020: d590 93ba da17 283c 75d6 893d cb15 323c
00000030: 690f bb3b 8632 b6bb d70b 8b3c fa12 16bd
00000040: 3527 323c 878e cdbc 6a30 0a3d dcfa e6bc
00000050: 0990 a23c fd41 49bc 7816 4cbb 65dd 0c3d
00000060: cf72 1cbd 9e9c 243d dad8 8bbb 15f7 04bd
00000070: 6031 f3bc 1992 3ebb a9b0 893c 58de 6cbc
00000080: 3b55 1e3b 43ab bebc f73b d4bb 91c1 f23c
00000090: b5a8 0bbd 9b66 79bc 290c 473c 527b b8bb
000000a0: 7dd8 7c3c a73d 003d 50a6 5a3b 7f3b 0cbc
000000b0: bb6f 39ba fcb7 bc3c fb6f d2b9 d2f7 153c
000000c0: 5ed8 8f3d 8b98 013d 13a2 913c ef5f f83b
000000d0: daf6 713c a4bf 05bc a9f7 a13a 0eb8 3ebc
000000e0: be9d afbc 72cb 1739 8b05 353c 92fb 8a3c
000000f0: 3fc3 4bbc e949 313d 6649 0d3d acdc 893d
-0.0054418594 -0.013066 0.0033240363 -0.0037516223 0.08579713 0.021175822 -0.033725098 0.045645226
-0.0011258373 0.010259593 0.067303576 0.010869454 0.005708624 -0.005560222 0.01697342 -0.03663919
0.0108736055 -0.025092376 0.033737577 -0.028195791 0.019844072 -0.012283799 -0.0031141322 0.034390826
-0.038195428 0.040188424 -0.004267794 -0.0324622 -0.02968663 -0.002907878 0.016807871 -0.014457308
0.0024159688 -0.023275023 -0.006476875 0.029633315 -0.03409644 -0.015222217 0.012148895 -0.0056299353
0.015432474 0.031308796 0.003336329 -0.008559107 -0.0007073839 0.02303695 -0.00040137753 0.009153323
0.07023691 0.031639617 0.017777478 0.0075797956 0.014768327 -0.0081633665 0.0012357134 -0.011640562
-0.021437522 0.00014476271 0.011048685 0.016965661 -0.012436687 0.043283377 0.034493826 0.06731543

weight f4 [32, 64]
00000000: a935 bbbd d133 023c 2b26 b1bd f46c 03bd
00000010: 7749 1ebd 1717 9dbd 977b 59bd bfe8 ed3d
00000020: 8b17 c3bd 0ead 80bd c242 c3bb 1cb4 f2bd
00000030: 9826 1a3b 6583 6b3c 6077 d1bd 5bb0 8b3d
00000040: e5aa e9bd a0b3 35bd 3a02 923d 0b3c aa3d
00000050: 88f3 7ebd 31f4 94bd 00d0 d8bd 682f 86bc
00000060: 3018 193d 22ae 65bd b8ec b0bc 57d6 bcbd
00000070: f407 ee3c ab22 153c a6e8 bdbc 2ae6 9cbd
00000080: 3fe4 9dbd 4342 073d 6e43 4cbd 16f1 b3bd
00000090: d4d2 fbbc c5e9 9ebd dadf 973c eb8d c33d
000000a0: ec88 c4bc daa1 05bd 381e 503c b573 7f3c
000000b0: 7a04 bfbd 4717 7039 0ec4 b23d 3d5c a4bd
000000c0: 662d 8ebc 221c 29bd b01b df3d b188 e7bd
000000d0: 60f6 8e3d 9329 a03d 65b5 773c 8872 da3d
000000e0: 83b9 85bb fe12 ebbb d5f4 d2bc dd62 103d
000000f0: 3ce9 ac3d 3496 7abd a622 03bc 16ab debb
00000100: e0fe 903d 2ee6 f7bd 78f8 22bd e857 ad3d
00000110: c8a2 97bd c1b5 dd3d 99c3 d0bc 0508 b2bd
00000120: a62a 11bd 61db 3b3d 1b0f ddbd 4410 6ebc
00000130: 1c42 1e3c 0bcc 803d 95eb ccbd e97c d4bd
00000140: b371 9abd 8a4d d2bd 9bcd 51bd 84e7 87bd
00000150: fc7c be3d 8e50 5e3d 6d25 15bd 5b5c 0f3d
00000160: b3e6 8e3d 8329 59bd 8958 9abd 0fa3 d83d
00000170: f62a bdbd cbcd d0bc f339 a83d b6b9 b53c
00000180: 1abc 37bd 9038 04bc 6171 e8bc 6880 503d
00000190: 6739 e03d fbdc 69bd 63ab edbd 16be 2fbd
000001a0: 87de 62bd 655c efbd efc1 c9bd 2706 bebc
000001b0: 776c 3f3d b603 14bd 1ad7 c0bc dbb4 98bd
000001c0: 949f ab3c f62c c0bd 5b29 d3bd 5a6f d8bc
000001d0: 1ea3 573d 5376 0cbd b565 1a3d 86a8 81bd
000001e0: 0917 163c 1d65 ad3d 510f 2bbd 4c55 873c
000001f0: 7e9a e7bd de42 323d 8ab0 f9bc c125 abbd
00000200: 81d1 603d c89c 6b3c f653 963c da82 8e3d
00000210: f98e 993d c88c eabd 6db2 4dbd 89df 01be
00000220: 95f4 0c3d 8fad ebbd 522d 113d 1a30 bd3d
00000230: b1ec 90bd d7dd 233d 5a6f d33d bb42 153e
00000240: cb33 ee3c 985b 563d 399e b5bd 1c6f 36bd
00000250: fa73 24bd 53d0 38bc 01c6 18ba 4cc7 f23d
00000260: c7d7 54bc 7546 eb3c 45fc cc3d c0a0 90bd
00000270: fbe1 7cbc 06c8 183e aa77 a83d be66 b3bd
00000280: 7390 24bd 2047 a2bc a887 98b7 ea6c e5bb
00000290: 532a 7abd d9db 92bc 54af 0d3c 1f76 62bd
000002a0: 6254 ab3d d56f 013e ec60 323d 7f09 4c3d
000002b0: 5d73 86bd adeb 8b3d 0f32 a43b f422 4dbd
000002c0: 42dc 59bd f4ac d83d 8a0d 02bd 6da0 31bd
000002d0: c35a cf3d b6ef e5bd c098 d13d 697f e03d
000002e0: 185c dbbd 9feb 983b b6c7 6ebd 87c9 60bd
000002f0: c951 a43d 6d4f 5f3c bbd8 eabd 2e59 fdbc
00000300: da66 c7bb bc23 e1bc 5b47 7d3d 6563 993c
00000310: 54f5 28bc 23b9 a9bd 8a4d 4e3d 0585 39bd
00000320: 870e 8c3d 9a6f c6bd cda1 e53d a34e 953b
00000330: b21c 69bc d5b3 90bd d170 a23d bf1e 033d
00000340: 815b a8bd 6293 cf3b 9671 4dbb 18cc 99bd
00000350: 117a 2b3d b85a 52bd 9003 9dbd f1c2 943d
00000360: 213a 08bc 16e9 df3d c83d a43c c8ca 1e3d
00000370: 3c52 9e3d 2085 f33c fdd1 e03d 84ca c23d
00000380: 780c 67bd b4a6 af3d 7d52 15bd 4f9e 08bb
00000390: 8ee1 aebd 1ed3 60bd 57dd a53a 9a2d 0d3d
000003a0: f94b 693c 154f debd 24af cebd ab8f 613d
000003b0: f9ab 6fbc c40f eb3d 31ec 293d 89cc e63d
000003c0: 786e cf3d 2923 923d f13b 973d a0cf 7b3d
000003d0: 96f1 d5bd 8dcd 633d 7550 0cbd f760 7c3c
000003e0: 966c b2bd 964b d7bc a23b 1c3d b4dd b53d
000003f0: cd79 cabc 81b3 b3bd 6067 a9bd cbbc 59bd
-0.09141094 0.007946924 -0.08649858 -0.032086328 -0.03864428 -0.0767042 -0.05309638 0.116166584
-0.09525975 -0.062830076 -0.005958886 -0.118507594 0.0023521539 0.014374589 -0.10227847 0.068207465
-0.11409549 -0.044360757 0.07129331 0.083122335 -0.06224397 -0.07273138 -0.10586548 -0.016380027
0.037376583 -0.05607427 -0.021597251 -0.092205696 0.029056527 0.009102504 -0.023182224 -0.07661088
-0.0770955 0.033022176 -0.049868993 -0.08786218 -0.03074018 -0.07759432 0.018539358 0.09548553
-0.02399107 -0.032625057 0.012702517 0.015591552 -0.09327026 0.00022896855 0.08728801 -0.080254056
-0.017355632 -0.041286595 0.10893953 -0.11305369 0.06980586 0.0782043 0.015118931 0.10666376
-0.0040809526 -0.007173895 -0.02575151 0.035250533 0.084429234 -0.0611784 -0.008003866 -0.0067952974
0.070798635 -0.1210445 -0.03978774 0.084640324 -0.07404095 0.108256824 -0.025483893 -0.08692936
-0.035441063 0.045863513 -0.10793897 -0.014530245 0.009659316 0.06288918 -0.10005871 -0.10375387
-0.07541218 -0.10268696 -0.05122147 -0.06635955 0.09301183 0.05427604 -0.036412645 0.035000186
0.06977596 -0.053018104 -0.07536418 0.10577976 -0.0923671 -0.025488755 0.08214178 0.02218328
-0.044857122 -0.008070126 -0.028374376 0.050903708 0.10948449 -0.05709551 -0.11604955 -0.04290589
-0.055388 -0.11687545 -0.09851443 -0.023196293 0.0467343 -0.03613635 -0.023540068 -0.074563704
0.020950116 -0.093835756 -0.10310622 -0.026420284 0.052645795 -0.03429253 0.03769465 -0.063309714
0.009160765 0.084665515 -0.041762654 0.016520165 -0.11308764 0.0435208 -0.030479688 -0.0835681
0.0548873 0.014380641 0.018350583 0.06958552 0.07497973 -0.11452633 -0.05021899 -0.12682928
0.03441294 -0.11507713 0.03544361 0.0923769 -0.07076395 0.040006485 0.10323973 0.14576237
0.029077431 0.052333444 -0.08868069 -0.044539556 -0.040149666 -0.011280137 -0.0005827845 0.11854419
-0.012990898 0.02872012 0.10009054 -0.07061911 -0.015434737 0.14920053 0.08225949 -0.08759831
-0.04017682 -0.019809306 -1.8182982e-05 -0.007001509 -0.06107552 -0.017927097 0.0086477585 -0.05528843
0.08365704 0.12640317 0.043549463 0.049813744 -0.065649725 0.06832061 0.0050108503 -0.050082162
-0.05318857 0.10579863 -0.031751193 -0.043365885 0.10124733 -0.11227362 0.10234213 0.109618016
-0.10710925 0.00466676 -0.058295928 -0.05487969 0.08023412 0.013629776 -0.11467119 -0.030926313
-0.006085259 -0.02748286 0.061835628 0.018724153 -0.010312397 -0.08287265 0.050366916 -0.045292873
0.06838708 -0.09689255 0.11212502 0.0045564934 -0.014228033 -0.0706555 0.07931674 0.032011744
-0.08220578 0.006334708 -0.003134822 -0.07509631 0.04186446 -0.051356047 -0.07666695 0.072637446
-0.00831464 0.109331295 0.02004899 0.038767606 0.07730529 0.029726565 0.10977552 0.09511283
-0.056408376 0.08576718 -0.03645562 -0.0020846312 -0.08539115 -0.054888837 0.0012654465 0.034467317
0.014239305 -0.108549275 -0.10091999 0.055068653 -0.014628404 0.114776164 0.041485015 0.11269481
0.10128492 0.071356125 0.0738448 0.061477304 -0.104464695 0.05561595 -0.034256417 0.015403978
-0.087121174 -0.02628116 0.038142808 0.08880177 -0.024716282 -0.08774472 -0.0827167 -0.053158563

bias f4 [32]
00000000: 7eae 98bd 81a9 8a3d bed0 f5bc eae5 a6bd
00000010: 2c18 053d 204c 44bd 39f5 1dbc 13ab f4bd
00000020: a91a 023c e6bb ad3d 4792 aebd a893 a9bd
00000030: a621 453d 7475 eebd 945a c73d 1dee 3d3d
00000040: 84f1 273e 1053 213d d306 76bd e200 ba3d
00000050: 44c3 24bb 0bab b1bd 2314 7e3d 58cd d83d
00000060: 011b bb3d a39e fd3d d03f 903e 46a3 61bd
00000070: 8223 b13d 0c51 e4bc 66da b13d 5131 463d
-0.07455157 0.067706116 -0.030006763 -0.081493214 0.032493755 -0.04792416 -0.009640985 -0.11946692
0.007940927 0.084831044 -0.08523994 -0.08280116 0.048127793 -0.11643496 0.09734073 0.04636966
0.16400725 0.039385855 -0.0600651 0.090822 -0.0025140801 -0.08675202 0.062030923 0.10586041
0.0913601 0.12383773 0.28173685 -0.05508735 0.08649351 -0.027870677 0.08684234 0.048386876

weight f4 [2, 32]
00000000: eb72 e23c 036c 403d 284e 703e adaf 833d
00000010: 03ea 963e 972d e1bc 21a6 19be 4a53 6a3d
00000020: c813 0dbd df7d 4fbd 81d8 ef3c 82b4 263e
00000030: bba5 abbc 09ae efbd 37d4 9b3d e2fd db3d
00000040: f26f a1bd ad9a 393e cf6d 7d3d 4189 94be
00000050: eaa2 e73d 5fe2 d9bd 2a56 61bd 475e 2abe
00000060: 5a04 6dbe cd09 e53e de4d 00bf c36b 8d3e
00000070: 4176 a7bd 0973 13be f187 c2bd 7cda 57bd
00000080: 7c73 9a3d 23c6 0bbe d72a 883c ac97 6f3d
00000090: 998f c4be bd28 3fbd d548 be3d ee29 0ebe
000000a0: e129 4c3d 626b 9cbd 74ea c1bd 5754 a53d
000000b0: 24bb 1ebe 5bf7 b5bd f6ae af3d e3e3 1bbe
000000c0: 3ced 3d3e c011 4dbd 7385 ac3c e95b 8e3e
000000d0: 8a90 243e 4820 f23d ec69 54be db17 813e
000000e0: 6d54 2abd c658 a5be 1641 f33e 7199 b0be
000000f0: 4d07 083e 36ef f0bd 7d2d 03be 0a40 ab3d
0.027642688 0.046978008 0.23467314 0.06429992 0.29475412 -0.02748756 -0.1500478 0.057208337
-0.034442693 -0.05065715 0.029278042 0.16279796 -0.02095305 -0.117031164 0.07608836 0.10741784
-0.0788268 0.1812541 0.0618723 -0.29010966 0.1131037 -0.1063888 -0.055013813 -0.16637526
-0.23146191 0.4473404 -0.50118816 0.27621278 -0.08176852 -0.14399351 -0.09498585 -0.052698597
0.07541558 -0.13649802 0.01662199 0.058494255 -0.38390806 -0.04666971 0.09291235 -0.13883182
0.049844626 -0.07637669 -0.094685465 0.08072727 -0.15501076 -0.0888507 0.08578293 -0.1522365
0.18547529 -0.050065756 0.021059727 0.27804497 0.16070762 0.118225634 -0.20743531 0.25213513
-0.04158442 -0.3229429 0.47510594 -0.34492067 0.13284035 -0.11764376 -0.12810321 0.08361824

bias f4 [2]
00000000: 47b1 46bd e847 953e
-0.04850891 0.29156423

momentum_buffer f4 [64, 3, 3, 3]
00000000: 8384 e6bc 1aef 10bc 14d5 e4bb 5b32 ccbc
00000010: 40d4 4abb 8005 c139 0cfa cbbc 04fe 0fbc
00000020: 487a a63b d1de 4dbd faae f9bc bb1b 10bd
00000030: 31fe 35bd 571f d8bc 9915 05bd 6f62 3dbd
00000040: 2bdf 14bd 5dba fcbc f247 1fbd 674f ccbc
00000050: bfc5 09bd 3cc4 0abd 6032 a8bc 62ec 04bd
00000060: 9e9a 06bd b220 f2bc 4ea2 03bd 7043 2d3a
00000070: ac31 e23a 3a71 8fba d078 f83a 307f 4dba
00000080: b023 d83a 883b caba 141f 8bbb a834 31bb
00000090: 5c54 903a 0601 483b 9287 9e3a a018 da39
000000a0: 6fab 493b 811c 3b3b 007c e7b6 6889 79ba
000000b0: 440a 88ba 6b05 5cba 1479 623b 3973 4d3b
000000c0: 19ca 863b f9b1 b03b 5060 a33b c2b7 0f3b
000000d0: 2917 ad3a 7534 903b d4f8 983c 34b5 093c
000000e0: 393f 413c c224 9b3c 6ee4 203c 32a2 3e3c
000000f0: d150 b03c 8e31 723c fcbf 9b3c 5c16 113d
00000100: 7130 063d e6ba 073d 4243 113d cf82 de3c
00000110: c954 f13c feef dc3c 8c88 e23c 4aff e33c
00000120: 4c29 243d b064 0c3d 6d70 0a3d 08d9 133d
00000130: dccf 033d 24cd 0d3d ff03 ef3c 0244 fa3c
00000140: 7041 e33c 5771 35bd 70e6 78bd b26c 42bd
00000150: 6384 2cbd 36bc 49bd 74b1 1ebd 8bfc 28bd
00000160: 5f25 2abd c311 07bd 3f95 92bd d1dc babd
00000170: 7597 94bd 8652 90bd 6648 a4bd a7dc 8fbd
00000180: 7e24 83bd 5113 8fbd 2430 80bd 7a01 81bd
00000190: 73cc a5bd b2f4 88bd 2d5e 83bd 58d1 90bd
000001a0: 9bc6 82bd ea60 79bd bd14 80bd 2e76 6dbd
000001b0: c4e2 29b9 1688 f13b eb78 413c 8c96 683b
000001c0: 406e 2b3b a12a 993b 3c71 21ba acb9 323a
000001d0: f2bc b03b be43 76bc fb81 09bc e63e efbb
000001e0: 6c74 26bc 87f3 4cbc 60d3 ebbb c884 37bc
000001f0: de5d 1bbc 60fd acbb b491 6abc 0273 3bbc
00000200: d123 16bc a21f 2cbc 5673 38bc e592 21bc
00000210: 3d8d 4ebc 9fe1 06bc 04a5 01bc 221c 0c3d
00000220: d6a9 a13c ead0 c63c 9450 903c bc3d 9e3b
00000230: 4045 e23b 7a6a 9c3c bc2b fa3b d006 093c
00000240: f7ff 823d 04c1 563d d21a 773d 9aa0 403d
00000250: 4a9d 173d dc67 133d a857 4a3d 16b4 0b3d
00000260: 000e 173d f599 623d 3bd0 453d fd5e 5e3d
00000270: 80a6 1f3d f513 fd3c fc89 133d 619e 233d
00000280: e41e fc3c ced2 113d 03c4 c1bb 5acb 4bbb
00000290: f8df 58bb e092 dc39 428b 363b fad4 eb3b
000002a0: 59df 253c bc54 1d3c f482 2a3c cc83 88bb
000002b0: 447d 963a 303d b5b9 20fb c6b9 86ad 493b
000002c0: 5aa1 cc3b 04c3 213c 197f 303c 8e47 263c
000002d0: 708f 8bbb bef8 bd3a fcd4 753a 24e3 26bb
000002e0: 6495 4a3b 9157 e83b 5eea cc3b f85c d43b
000002f0: 0306 1b3c 9899 a53a a6bd eb3b 3b5f 843c
00000300: 60df 1aba a00e a6ba 606e 923a bf12 273c
00000310: c2c1 b03b 82a7 d73b b472 3a3c 78a5 873c
00000320: 5c80 b13c 2467 b93b 68b5 d73b c683 ff3b
00000330: be5a 613c bf2f 123c 37c2 0a3c f3db a93b
00000340: e058 533c 9fa1 933c 223a 673b ffaa ad3b
00000350: 208c a33b a2a1 183c f99b 223c b966 453c
00000360: 6c48 033c c443 263c 68ef c83b 4069 cf3c
00000370: f297 da3c b7c6 c73c 8a17 e53c 464c 0b3d
00000380: 87bf fb3c bea3 e93c 2889 113d 385c ec3c
00000390: 07dc 1c3d c5a0 323d 9d8c 2c3d 1567 1e3d
000003a0: 62c6 393d 79e6 473d de73 e13c 2e57 143d
000003b0: 413e 033d 40ed 083d d2a4 1c3d 9f22 1a3d
000003c0: f6b1 003d 1fb6 0c3d 03eb 173d 18ec b13c
000003d0: 29cd 923c 5a4c a03c 3080 fa3b 8d90 d33b
000003e0: 3a23 6b3c 705c b53b d07a 273a 6ac4 843b
000003f0: 093d 033d cc65 d73c 7596 fa3c 69d5 973c
-0.028139358 -0.008846069 -0.0069834087 -0.024926355 -0.0030949265 0.00036815926 -0.024899505 -0.008788589
0.005080495 -0.050261322 -0.030478943 -0.035182696 -0.04443187 -0.026382132 -0.0324913 -0.04623645
-0.036345642 -0.030850584 -0.03888697 -0.024940206 -0.03363585 -0.03387855 -0.020531833 -0.032451995
-0.0328623 -0.029556606 -0.032137208 0.0006609475 0.0017257235 -0.0010943778 0.0018956903 -0.0007839082
0.0016490128 -0.0015429119 -0.004245648 -0.0027039442 0.0011011469 0.0030518188 0.0012094846 0.00041598547
0.0030772348 0.0028550925 -6.898772e-06 -0.00095190713 -0.0010379036 -0.00083931413 0.0034557031 0.0031349196
0.0041134474 0.0053923097 0.0049858466 0.0021929597 0.0013205755 0.0044007846 0.018673338 0.008405019
0.011794859 0.018938426 0.009820087 0.01163535 0.021522911 0.014782323 0.019012444 0.035421714
0.03276104 0.033137225 0.035464533 0.027161984 0.029459374 0.026969906 0.027653001 0.027831692
0.040078446 0.03427571 0.033798624 0.03609565 0.032180652 0.034619465 0.02917671 0.030550007
0.027741164 -0.044297542 -0.060766637 -0.04746694 -0.04211844 -0.049251758 -0.03874345 -0.04125647
-0.041539546 -0.032975923 -0.07157373 -0.09124149 -0.07255451 -0.0704699 -0.080216214 -0.07024508
-0.06403445 -0.06986106 -0.06259182 -0.0629911 -0.08095636 -0.06687297 -0.06414447 -0.07071179
-0.06385537 -0.06088344 -0.062539555 -0.057974033 -0.00016201573 0.007370959 0.011808614 0.0035490124
0.0026158243 0.004674271 -0.0006158536 0.00068178284 0.005393618 -0.015030799 -0.008392806 -0.0073011992
-0.010159593 -0.012509233 -0.0071968287 -0.011201091 -0.009482829 -0.005279228 -0.014316965 -0.011440994
-0.009163813 -0.010505589 -0.011257967 -0.009861683 -0.012606916 -0.008232503 -0.007912878 0.034206517
0.019734304 0.02426954 0.017616548 0.0048291367 0.006905228 0.01909374 0.007634608 0.008363441
0.06396478 0.052430168 0.060328312 0.04702816 0.037015237 0.03598772 0.0494 0.03410729
0.036878586 0.055322606 0.048294287 0.054289807 0.038977146 0.030893305 0.036020264 0.039945964
0.030776449 0.03560143 -0.005913259 -0.0031096549 -0.003309248 0.000420711 0.0027854 0.0071970196
0.010124051 0.009602722 0.010407198 -0.004166102 0.0011481424 -0.00034568598 -0.00037952606 0.0030773594
0.0062448205 0.0098731555 0.01077249 0.010148896 -0.0042590424 0.0014493687 0.00093777454 -0.0025464976
0.0030911798 0.007090517 0.0062535247 0.0064808093 0.0094618825 0.0012634275 0.0071942387 0.01615869
-0.0005907919 -0.0012669154 0.001117181 0.0101973405 0.0053941915 0.006581248 0.011379886 0.016558394
0.021667652 0.0056580473 0.0065829046 0.007797691 0.013754545 0.008922516 0.008469156 0.0051836907
0.012899607 0.018021403 0.0035282453 0.0052999253 0.0049910694 0.00931588 0.009924882 0.012048417
0.008012872 0.0101479925 0.006132055 0.025318742 0.026683781 0.024386747 0.027965326 0.034008287
0.030730976 0.028520461 0.035531193 0.028852567 0.038295772 0.043610353 0.042126287 0.038672525
0.04535521 0.04880378 0.02752107 0.036215954 0.03204179 0.033429384 0.038243122 0.037630673
0.031419717 0.03435337 0.03708936 0.021719024 0.017920094 0.019567657 0.0076446757 0.006456441
0.01435166 0.005534701 0.0006388845 0.0040517347 0.03204063 0.026293658 0.030589322 0.01853438

momentum_buffer f4 [64]
00000000: 5084 9f3d 73ef 95bb 6530 6ebc b640 a13d
00000010: 6cdf 193c 60ec 39bd 8001 31bc 9c83 f2bc
00000020: ec8a 01bd cecc 89bc 703e 9c3a d4bd 823c
00000030: e094 02bc 32cb 2f3d 7754 8a3d b4aa 80bc
00000040: 0c6f 873d 4671 a9bb f8ee a63b 43b0 043d
00000050: 54d0 a3bb 5049 2cbd 5438 063b 9282 e43c
00000060: f4ee be3b 13bb c1bc 6d27 16bd 735e 32bc
00000070: 7dfb 1a3d 7235 d5bc b7e0 333d 7bb1 4ebd
00000080: 96d9 813c b4a4 75bc bc02 263b b4bb b53b
00000090: 16bc 0bbc 3a0f 03bd 5c0d 183d 50ed b53c
000000a0: c855 fc3a c0c3 aaba 7b87 0bbc b272 033d
000000b0: 6031 52bb 9c7d a43b 5fc5 753b 72ab babb
000000c0: 2e1b 403b a3dc 2b3d 390d 12bc ecb9 d03b
000000d0: 11ad d53c 58b5 06bd 6c3c 43bc 0aec a2bd
000000e0: 9e97 133c 83b2 69bc 3b01 3cbc 6fc8 5bbc
000000f0: 5263 80bc 01f3 813b af8e ddbc 58b9 e8bb
0.077889085 -0.0045756637 -0.014537905 0.07873671 0.009391647 -0.04539144 -0.01080358 -0.029603772
-0.031626627 -0.016821291 0.0011920463 0.015959658 -0.007970065 0.04291839 0.06754392 -0.015706398
0.066129774 -0.005170974 0.0050944053 0.03239466 -0.0049992 -0.042062104 0.0020480352 0.027894292
0.0058268253 -0.023648774 -0.036658693 -0.010886776 0.037837494 -0.026026461 0.043915477 -0.050462227
0.015850823 -0.014992882 0.002533122 0.0055460576 -0.00852873 -0.031996943 0.037122115 0.022207886
0.0019251639 -0.0013028309 -0.008516188 0.032091804 -0.0032072887 0.0050198566 0.0037501676 -0.0056967074
0.0029313075 0.041958462 -0.008914285 0.00636982 0.026083501 -0.032887787 -0.011916261 -0.07955177
0.009008316 -0.014263752 -0.011474903 -0.013414486 -0.01567236 0.003965736 -0.027045576 -0.007102173

momentum_buffer f4 [100, 64, 3, 3]
00000000: 6040 ab38 d812 05bb acc6 bf39 b813 393a
00000010: 90d4 9e39 1e6a 13ba b02f 0a3b ce6e a43a
00000020: 48e3 f33a 5e2f 3a3a f692 fa39 6c8b d139
00000030: 235c 513b da6b b23a 4b84 cc3a cd40 db3a
00000040: 0f2d 073b 2073 203b 6c97 d239 fa19 ce3a
00000050: 4159 3e3a c051 9039 9e7a 863a 5893 a93a
00000060: 4c05 a7ba ca22 64ba dd39 7cba ced4 88bb
00000070: aeec 7fbb be6d 5dbb bed9 80bb 286c c0bb
00000080: 4050 57bb 9c13 4abb 33d2 86bb c63b bbbb
00000090: 4975 0bbc bcd1 e0bb 1a60 71bb a05b 1fbc
000000a0: 692d 2bbc f7f9 0cbc 8a1f 25bc 93a7 21bc
000000b0: 78fc 01bc c8e6 e4ba c18c f1b8 8274 db3a
000000c0: 54b5 8a3a e3ae b03b 27a4 b23b 8a51 503a
000000d0: 6e20 653a 1b6d 9c3a 3237 5a3a 1c16 9e3a
000000e0: 0b1a 173b 1a57 beba cc3f b9b9 e9c7 8f3a
000000f0: 2e3f 3639 d710 0e3b b76d 3e3b 8214 0cbb
00000100: 7a7b 1cbb d680 9bba 858f 9b3a 0095 a23b
00000110: d5e7 5b3b 20e3 2538 00fb cb38 8827 a339
00000120: 09dd d83a 4ea4 993a 301a f439 f003 faba
00000130: 1aa9 1cbb 587c cfb8 0f49 48ba 70d9 3538
00000140: fe47 e63a 6356 73bb 4abb 2cbb b46f 6739
00000150: ef18 42bb c8a0 983a 826b 313b d591 48bb
00000160: a815 92bb 68e2 74bb d142 81bb 11c2 a9ba
00000170: c438 1cbb 7031 babb b7e4 cabb bd3a bfbb
00000180: 9135 9ebb f931 bfbb c2ae d2bb 201e 7d3a
00000190: ebb5 f3b8 c854 273b b012 5c3a 133b 433b
000001a0: 507c 773b 2a55 ab3a 03ec 803b 1c71 983b
000001b0: 64f2 03bc b49b 8cbb 6b80 3fbb 2d38 e3bb
000001c0: 5277 3bbb 9a73 5bbb 3192 2dbc 2b5b 41bc
000001d0: de1b 3fbc 4b97 38bb 6492 5bbb bacc 1cba
000001e0: 117a 77ba d488 2cbb 5656 dfba c800 d239
000001f0: ba0d 943a 5a09 8f3a be5d 09bb 092d baba
00000200: 2679 4bb9 64b9 a63a 96dd b3b9 c624 673a
00000210: 8080 f4b8 68de 2c39 0600 ba3a a249 94bb
00000220: f371 8bba de0d 2cbb f73f a0bb 6c1a 2ebb
00000230: 54da 2dbb 1c25 cdbb 6883 80bb f195 8fbb
00000240: 6eaf 20bb e096 0d38 8e93 71ba bc34 1abb
00000250: 10c2 363b 06b2 873b 0190 ebba e032 3d38
00000260: 245a c63a bb63 9f3a e09c 8bb8 ed84 ff3a
00000270: 52de 23ba 2d73 23bb 4d05 89ba 2066 df37
00000280: 28fd deb9 05a4 623a 68d6 ecb9 3949 aeba
00000290: 3469 38ba 9caf c6b9 1940 0bba c274 61ba
000002a0: c071 0d3b 350b 5e3b 8e37 4b3b ccf6 79bb
000002b0: d92c 4fbb f68e e1ba 85d0 d4ba 1a75 99ba
000002c0: 96e4 84b9 14f0 15ba 91e5 efba d98e 3fba
000002d0: 3af5 4aba ac84 adba 1479 05b9 a587 8d3a
000002e0: d95c 753a 2901 273a 9a24 3f3b 3a08 9a3b
000002f0: 0fa1 163b 791d a2ba 168a 4a3b e98b 353b
00000300: 5d6e 613b 96d0 013c 091b 203c c31c 113b
00000310: 6c67 093b 2e01 d03a 489b 78bb f9f7 8fba
00000320: 4a9f c73a fc2f 8eba 7caf 64b9 d269 613b
00000330: aa82 a1ba 9ed6 96ba 44bd deba 6c70 08bc
00000340: e2da 9ebb 450a bcbb d4f9 1ebc cd89 25bc
00000350: 6b8d 05bc 5e72 3ebc d18c 34bc c1f8 09bc
00000360: a890 c2ba 8044 05b7 fdfa bb39 7c7c 4bba
00000370: 7609 cd39 f0a8 593a c3d1 f63a c90e 963a
00000380: d0e1 383b ea65 4cb9 34bb a73a 4070 803b
00000390: 7c7a a5ba 294d 4f3b 711b ce3b 305c 2bb9
000003a0: a0a9 823b 11e8 bb3b 9133 e9ba 798f 8eba
000003b0: a7ec 0f3a f81d 27ba 263c 8eb9 cb42 11ba
000003c0: ced0 2ab9 3c21 b63a 7905 b63a 7726 19ba
000003d0: 8830 a2b9 2de0 bc3a 30a0 633a fe9a b539
000003e0: 1611 d239 2cfc 943a efe7 0c3b c38b 813a
000003f0: 1c44 6fbb e580 b4ba 02d7 1abb 0d21 e3bb
8.165906e-05 -0.0020305421 0.0003657838 0.0007060128 0.0003029448 -0.00056234177 0.0021085553 0.0012545229
0.0018607164 0.0007102395 0.0004779321 0.00039967464 0.0031945787 0.0013612465 0.0015603391 0.0016727686
0.0020626222 0.0024482682 0.0004016714 0.0015724294 0.00072612247 0.0002752673 0.0010259931 0.0012937589
-0.0012742667 -0.0008702694 -0.00096216594 -0.004175759 -0.0039050984 -0.0033787335 -0.003932207 -0.005872268
-0.003285423 -0.0030834442 -0.004114413 -0.0057139127 -0.00851185 -0.00686094 -0.0036830963 -0.009726435
-0.010447838 -0.008604518 -0.01007832 -0.009866613 -0.007933728 -0.0017463798 -0.00011517993 0.0016743096
0.0010582604 0.005391942 0.0054516974 0.00079467206 0.0008740489 0.0011934371 0.0008324265 0.0012061032
0.0023056294 -0.0014521808 -0.00035333482 0.0010969612 0.00017380409 0.0021677518 0.0029057094 -0.0021374528
-0.0023877309 -0.0011863958 0.0011868334 0.00496161 0.003355493 3.9550592e-05 9.726547e-05 0.00031119236
0.0016545366 0.001172194 0.00046558818 -0.001907466 -0.0023904503 -9.89369e-05 -0.0007640281 4.3356267e-05
0.0017569063 -0.0037130348 -0.002635675 0.0002207149 -0.0029616912 0.0011644596 0.0027072136 -0.00306045
-0.004458148 -0.0037366394 -0.0039447327 -0.0012951513 -0.0023837546 -0.005682163 -0.0061918157 -0.0058358596
-0.004828163 -0.0058348146 -0.006429524 0.0009655673 -0.00011621028 0.0025532711 0.00083951186 0.002978985
0.0037763305 0.0013071646 0.003934385 0.0046521556 -0.008053396 -0.004291022 -0.002922083 -0.006934187
-0.0028605056 -0.0033485652 -0.010593937 -0.011801521 -0.011664359 -0.002816635 -0.0033504004 -0.00059814344
-0.00094404916 -0.0026326673 -0.001703928 0.00040054903 0.0011295595 0.0010912821 -0.0020960416 -0.0014204095
-0.0001940472 0.0012720046 -0.00034306635 0.00088174304 -0.00011658762 0.00016486051 0.0014190681 -0.0045253793
-0.0010638818 -0.0026253383 -0.0048904377 -0.0026566042 -0.0026527839 -0.0062605273 -0.003921915 -0.004381888
-0.0024518627 3.3757533e-05 -0.0009215408 -0.0023529967 0.0027886666 0.004141095 -0.0017971994 4.5108492e-05
0.0015133065 0.0012160459 -6.657257e-05 0.0019494571 -0.0006251085 -0.0024940476 -0.001045385 2.6631227e-05
-0.00042531756 0.00086456566 -0.00045173173 -0.0013296969 -0.00070347195 -0.00037896342 -0.00053119805 -0.0008600467
0.0021582693 0.0033881192 0.0031008455 -0.0038141487 -0.0031612425 -0.0017208743 -0.001623646 -0.0011707873
-0.00025347312 -0.00057196734 -0.0018302669 -0.0007307358 -0.000774223 -0.0013238392 -0.00012728974 0.0010797872
0.00093598437 0.00063707173 0.0029166103 0.0047006877 0.0022984182 -0.0012368403 0.003090506 0.00277018
0.0034398057 0.007923266 0.009772071 0.0022142387 0.0020966185 0.0015869492 -0.0037934352 -0.0010983936
0.0015229967 -0.0010848041 -0.00021809147 0.003439535 -0.0012322266 -0.0011508053 -0.0016993661 -0.008327585
-0.00484787 -0.005738529 -0.009703118 -0.010103655 -0.008151392 -0.011623947 -0.011019901 -0.008421124
-0.0014844136 -7.943367e-06 0.0003585442 -0.0007762385 0.00039107696 0.0008303067 0.0018830824 0.0011448498
0.0028210767 -0.00019492922 0.001279688 0.0039196312 -0.0012625004 0.0031631684 0.0062898924 -0.00016342173
0.003987506 0.0057344516 -0.0017791857 -0.0010876498 0.0005490281 -0.000637501 -0.00027129165 -0.0005541264
-0.00016290249 0.0013895403 0.0013887129 -0.00058422185 -0.00030935206 0.0014410071 0.00086832326 0.00034638488
0.0004006705 0.0011366657 0.0021500548 0.0009883571 -0.0036509102 -0.0013771324 -0.002362669 -0.00693143
